models/saved/elliptic_gat_best.pt (torch, 758335 bytes, 12 tensors)

gat1.att f4 [1, 8, 64]
00000000: 90cd 7d3c 3735 da3c 4895 dfbc 95d2 a13d
00000010: 5b67 50bd 9bad 00be 7a1d 183e ca9a 313c
00000020: 0d50 aebe 64f4 46bd 2b56 debd 9e1c 1a3e
00000030: e4f1 173d 0b40 f2bd 3464 f13d 955a 7abe
00000040: 0744 403e 8048 a83b 57b9 d0be 50e9 e93d
00000050: c3bc be3c a96c 52be 7376 4e3c a491 7ebd
00000060: f2a4 07bd 1672 02be 234b 4a3d a832 90be
00000070: 9b3d 4f3e baf3 0ebe 94ef 7dbb 1735 123c
00000080: 027c e33d 3c0a 1b3d 7c7c 623d caa7 dcbd
00000090: 066b 073e d792 d5bd 4519 073d 4856 8dbd
000000a0: 0cf7 983d 1a0f bcbd a126 2e3e 4fd1 c93d
000000b0: 2a22 883d 990e 8b3d b267 993d 7ed2 a3be
000000c0: 94d6 053e f94b 17bd dd12 d73d ff5f 51be
000000d0: b081 21be dc4e d43c 9792 92be 49b4 22bd
000000e0: 2e77 09be 2e64 bbbd 50e6 cdbd 4460 46bc
000000f0: c481 cb3c 4db2 ac3a 5c01 8abe 0f1f f23d
00000100: decd 8e3b 06b5 96bd fc71 fabe b6d5 60be
00000110: 9313 c0be 8380 3abe 68ff a4be 6ea3 abbc
00000120: b96d 41bd c587 2e3b df91 a33c e882 cfbc
00000130: a405 8abd 571a 92bd 73fa 1bbf 5b36 ec3d
00000140: f061 adbe 49cd 933d ebb1 8ebb f340 02be
00000150: c060 afbc 2326 b6bd 35ca 433c 81c5 d1be
00000160: 20d0 933d 8fc7 98be db33 2fbe 0403 62bc
00000170: 69dc 043c fe3c ecbc c049 17be 46d4 833d
00000180: 87cb 283e 2d44 abbe f8b2 63bc 3dc2 1fbf
00000190: e13f 6a3d b0a5 7dbe 9aea fdbb d018 a73b
000001a0: e3aa 623d 53c5 5fbc 89bf c8bd 357c 10be
000001b0: 7242 dbbc e926 b93d 1f7f 9fbe 31de a5bc
000001c0: 496d 61bd 0725 a4bc e665 7dbe a6c2 bebd
000001d0: 1273 06bc 0a6a e03c 566c 70be 6bfa 133d
000001e0: 0910 813d 451d cbb7 2991 3ebe 2854 91bd
000001f0: 3920 a73a cb93 eb3c a6d7 983c 3250 ba3a
00000200: 509d 64bb 5d6d dbbc 8b38 d23d 4dea 8ebd
00000210: 4ed4 263d 7dc5 47be 8651 25bd a7c1 c73d
00000220: 8629 82be f4c0 8d3d 5673 513c cf1a c8bd
00000230: d189 90bc 56d7 383c f27d ce3d 59ba a9bd
00000240: 0023 93bd cf14 1bbd 95cf a33c f836 d23b
00000250: db4a 013b bac3 383e 832c 803e 8159 8ebd
00000260: 50f8 c83d 85f5 b13d cd09 74ba ac7b 26be
00000270: dbba cfbd d3f1 22be 698a 7dbd a4a9 26be
00000280: 3041 88bc 258b d83d b82e dbbd 1a6f 50be
00000290: d823 0c3e beb0 a7bc 06de f0bd dbb7 06bd
000002a0: 3ff6 e1bd 3cb3 253d d56d a8bd 495f 4bbc
000002b0: d0fd 5f3d a746 ad3d 4114 9ebb 4695 0e3e
000002c0: a27a 40bb b1e1 b3bd fdae f03d 7104 993c
000002d0: 8a36 e2bc 9948 8d3d 505b 12bd efef 6ebd
000002e0: 202f 64bd cdf2 1ebe cce4 05bc 0de9 db3b
000002f0: d09d 21bd 5b82 c2bd 4893 e5bd e78f fcbb
00000300: 06cd 02be 62f6 5abc 54f5 edbb ac8c 73bc
00000310: 5e6c 79bd 3c80 f1bc 21b0 543d a5b5 82bc
00000320: 4dcc 4c3c efbf f8bd aeb6 0bbe 5de2 803d
00000330: c3f3 0d3e ade0 2fbe e941 0cbe baf2 bd3c
00000340: d6a4 413d eaf5 60bd fc5b 05bd cc7d b93c
00000350: b7ad 57bd 2c16 943d c7a6 e63d ac59 b33c
00000360: f1af 7bbe e3b1 9039 048a 583c 2d79 853e
00000370: e1cb b8bc a498 53be ddb3 8fbe 0902 adbd
00000380: 39ab fd3d 3f15 df3b 60b4 23bd f58a 963d
00000390: c167 b3bd c4d5 ff3d 6366 77bd 4115 2d3e
000003a0: 8533 c83c 8e3b c43e a390 1dbc 97a5 94bb
000003b0: 46ae 913c 4942 eb3a 05f2 d6bc 6964 493d
000003c0: d5ee 193d 077c eebb 4b8a 413d 0b0c 2f3d
000003d0: ebc4 b1be bae1 493d 43e8 02be 7ad1 36bd
000003e0: 06e1 51bd 2624 8c3b 810a 1c3d 087c 1c3a
000003f0: fe4c f13d 0005 c2b9 8df6 343d 530a bbbe
0.015490904 0.026636703 -0.027292863 0.079014935 -0.050879817 -0.12566225 0.14854994 0.010840127
-0.3404545 -0.048572913 -0.10856279 0.15049979 0.03709592 -0.118286215 0.1178669 -0.24448617
0.1877595 0.005135596 -0.40766403 0.11421454 0.023283368 -0.20549263 0.012601483 -0.062150612
-0.03311629 -0.12738833 0.049388062 -0.28163648 0.20238344 -0.13960162 -0.0038747536 0.00892379
0.11107637 0.037851557 0.0552945 -0.10774191 0.1322442 -0.10428398 0.032983083 -0.069012225
0.074689955 -0.09182568 0.17006923 0.098543756 0.06647141 0.06789894 0.074904814 -0.3199653
0.13070136 -0.036937688 0.10501645 -0.20446776 -0.15772128 0.02591651 -0.28627464 -0.039722715
-0.1342437 -0.09149967 -0.10053694 -0.012107912 0.02484215 0.0013175696 -0.26954162 0.1182233
0.0043580374 -0.07358746 -0.48915088 -0.21956524 -0.37514934 -0.18213086 -0.3222611 -0.020951953
-0.04722378 0.0026631218 0.019967018 -0.025330976 -0.06739357 -0.0713393 -0.6092903 0.11533805
-0.33863783 0.072168894 -0.0043547056 -0.12720089 -0.021408439 -0.08893993 0.011950065 -0.40970996
0.07217431 -0.2983975 -0.17109625 -0.013794664 0.0081091905 -0.028837677 -0.14774227 0.06436972
0.1648389 -0.33450451 -0.01389765 -0.6240576 0.057189826 -0.24770236 -0.007748914 0.0050993934
0.05533875 -0.013657886 -0.098021574 -0.14109881 -0.026765082 0.09040625 -0.31151673 -0.02024755
-0.055035863 -0.020037187 -0.24745902 -0.0931447 -0.008206146 0.027394313 -0.23478827 0.03612749
0.063018866 -2.4213115e-05 -0.18610062 -0.0709613 0.0012750692 0.028756997 0.018657517 0.0014214574
-0.0034883805 -0.026785547 0.10264691 -0.06978283 0.040729813 -0.1950893 -0.04036095 0.09753733
-0.25422305 0.069215685 0.012783846 -0.09770738 -0.017643841 0.011281809 0.10082616 -0.08287496
-0.0718441 -0.03786164 0.019996444 0.006415244 0.0019728455 0.18043414 0.2503396 -0.06950665
0.09812987 0.08689407 -0.0009309322 -0.16258115 -0.10143062 -0.15912561 -0.061899576 -0.1627565
-0.016632646 0.10573415 -0.1070227 -0.20354882 0.13685548 -0.02047002 -0.117610976 -0.032890182
-0.11033296 0.040454134 -0.08224074 -0.0124128545 0.054685414 0.084607415 -0.004824192 0.13924131
-0.002936997 -0.087832816 0.11752126 0.018678876 -0.027613897 0.068986125 -0.035731614 -0.058334287
-0.055709004 -0.15522309 -0.008172225 0.0067111314 -0.039457142 -0.094975196 -0.11209732 -0.007707584
-0.12773523 -0.013364406 -0.0072619114 -0.014865082 -0.060894363 -0.029480092 0.051925782 -0.015955755
0.012499881 -0.121459834 -0.13643906 0.06293175 0.13862519 -0.17175551 -0.13697018 0.02318703
0.04727634 -0.054922022 -0.032558426 0.022642992 -0.0526559 0.072307914 0.11262279 0.021893345
-0.24578835 0.00027598356 0.013216499 0.26069012 -0.022558155 -0.20663697 -0.28066912 -0.08447654
0.12386174 0.0068079527 -0.03996694 0.07350723 -0.08760024 0.124919444 -0.060400378 0.16902639
0.024438629 0.38326687 -0.009617004 -0.0045363414 0.017783295 0.0017948832 -0.02623845 0.049168024
0.037581284 -0.007277969 0.047251027 0.042736094 -0.3472055 0.049287535 -0.12783913 -0.044633366
-0.05123999 0.00427677 0.038095955 0.000596941 0.11782263 -0.0003700629 0.04418044 -0.36531314

gat1.bias f4 [512]
00000000: 4b7c a1bc 73a1 18bc 36ea aabc 56eb 953c
00000010: f48e 34bb a229 7abb 9ead d5bb e1b1 a13c
00000020: 9771 1eb7 3fcc 2b3c f709 253c 4bed a93c
00000030: 2eb4 573c 3258 04bc 8978 1a3c 062b 213b
00000040: bf7c b13c f119 fc3b f3e4 dcbc 6128 c6bd
00000050: 8f7d dd3b 59f4 65bb 91f4 0bbd 38d0 293c
00000060: 6cb4 a2bc a616 b8ba f08d cb3a 5508 33bc
00000070: 269e 9ebd 0114 7fbc eb72 473c 0c71 43bc
00000080: 41f5 d2bc 7dc4 493c e879 5a3c f413 eabb
00000090: 8d45 9a3c 1c82 f03b a4f4 d33b 6cb1 083c
000000a0: dabf f1bb 9b78 1fbd 78b8 2abb f8ec 61bb
000000b0: 3b6b 57bc 0497 103a 07b7 9b3a 092e 7ebb
000000c0: 52a6 e8ba 2848 a03b 8a7b f13c da0a 97bb
000000d0: 8774 2abc 1aea 7cbc 15f8 0f3a da19 fe3b
000000e0: 7fa6 46bc c423 26b9 da98 3d3c 9944 5dbd
000000f0: c923 5fbc ccf3 0dbc 0fe5 b73b 1b82 893c
00000100: 6371 7c3b a4d6 623c c338 613c c851 9dbc
00000110: c19f ecbb 8017 a7bb ed62 39bb d05c d53c
00000120: 7fdc dd3b fb2a 66bb 3505 1db9 6078 b3bb
00000130: bc40 77bd e605 bebc 0432 10bc d0c5 b0bc
00000140: 27a6 cbbb e955 8b3c d392 803b ee64 0e3c
00000150: 37f4 673b 31b2 6a3c ad80 8fbc 20e4 843b
00000160: bedd e6bc bd77 183c 38ad cfbc 0ec4 e5ba
00000170: 9cc5 89bb 5b1a 4f3c 7647 0c3c 2e2c e93b
00000180: f32a 0fbc 64d7 e5bb e8a6 b7ba 1b9e 94bc
00000190: 88b1 a33b 3428 a3bb 16bb 89bd 2102 82bc
000001a0: 3a33 68bd c0f4 66ba e548 333b f62e 37bc
000001b0: fdb1 4abb b1e2 923b 75bd 4b3c aa02 8d3c
000001c0: 18f1 c3bc e7b4 a43b 28cf b0bc 9c4d 3dbc
000001d0: 48e6 893c 002b abbc c674 96ba d77b 993a
000001e0: d5ec 3d3c d19b 363c 29e9 fcb9 34f8 5fbd
000001f0: d0de da3a 6f3f d6bc a77e 94bc d8af 763b
00000200: 052c e63b 81a8 dfba 7ead 39bd 6567 903c
00000210: e48c adbc c4c4 833b f185 fe3b c1dc 173c
00000220: 6d8f 2dbb a948 70bb 8096 78bb 8a5f ecb9
00000230: 77ef 82bc e715 643c b0c9 87bb 8d1e 9f39
00000240: 1a5f 5c3c e4cf 213b 8742 d8bc 1cd9 7c3c
00000250: 9de5 cdba ddb4 b33b 768e b43a 71bf e7bb
00000260: a899 583a 4410 a5bb a540 1c3c d29e 58bd
00000270: 89ef 83bd 3198 92bd 7f70 0b3c c930 b13c
00000280: 93ec 793a db56 2a3b e2a0 d3bb 14e8 b0bd
00000290: 319c c5bb 1bd8 1d3c 0dc7 0fbb 864c 263c
000002a0: c43c 10bc 33cb 4e3c 21cc 88bd 8c4d b53b
000002b0: 944b 463c cb16 d6bc 23d9 99bd 3da4 98bd
000002c0: 51ee 6b3a a08b 773a aaf7 01bd 18bd 85bd
000002d0: 0ee8 0f3a 646b 1a3c e491 57ba d94b f9bb
000002e0: 380e 1f3c 83f6 1636 cc0d 9a3c c6df 123c
000002f0: a62c 0dbc 0ab1 88ba 1d1e 8039 7461 7db8
00000300: 7501 9d3c 74f5 d9b9 3999 d03c 87a6 d1bb
00000310: c317 253c 065e b93c 6425 033c e1f6 b3bb
00000320: 3b19 59bc c6e4 9b3b ab42 95bb a564 883c
00000330: b8c3 b03c 7bee 233b b2ba 9a3c f1cb bb3b
00000340: b674 5e3c c2d4 5fbc 6b1b bcbc a6f7 0b3d
00000350: 31b3 ebb9 54b1 84bb a5b3 093c 8cb9 873c
00000360: ed9f 053c e12b 843b 508e 02bb 375c aa3b
00000370: a8f3 aabb 6fcf a33c bda9 363c b3ac 8f3b
00000380: 946f 3a3c 7dd3 943c cfc8 67bc 6c8f f43c
00000390: 88d1 9e3b ce70 b33c a469 033d ecd1 883b
000003a0: a7a0 47bc a37b 0bbe e447 a63c 4d1b 1ebc
000003b0: 8ae4 dc3c 24a8 6d3b e8e8 bc3c 81b4 5abc
000003c0: 0936 fab9 0712 28bc 42ca 03bd e84d 9abb
000003d0: a3e3 f8bc a01e 69bb c704 1cbc 6b35 9d3c
000003e0: ca20 fd3b aeb3 bfba e94d 6ebd 2014 f2bb
000003f0: 0247 b73b 36e4 843b 9ecb 96bc 0f5a ba3c
-0.019712588 -0.009315836 -0.020863634 0.018300693 -0.0027551027 -0.0038171788 -0.006520941 0.01973814
-9.443981e-06 0.010485708 0.010073177 0.020743033 0.013165517 -0.008077668 0.009428152 0.0024592294
0.021665929 0.007693522 -0.02696464 -0.096756704 0.0067593525 -0.003508827 -0.034168784 0.010364585
-0.019861422 -0.0014044836 0.0015529972 -0.0109272795 -0.07745008 -0.015568734 0.012173395 -0.011928808
-0.025751712 0.012314913 0.013334729 -0.007143492 0.018831993 0.007339729 0.0064683724 0.008343082
-0.007377607 -0.038933378 -0.0026049893 -0.003447352 -0.013148124 0.0005515667 0.0011880108 -0.0038784763
-0.0017749763 0.004891414 0.029477853 -0.004609448 -0.010403759 -0.015436674 0.0005491984 0.0077545466
-0.012124657 -0.00015844317 0.011572087 -0.054020498 -0.013619372 -0.008664083 0.0056120227 0.016785672
0.0038519732 0.01384512 0.013746443 -0.019204035 -0.0072211926 -0.005099237 -0.0028287724 0.026045233
0.00677067 -0.0035120833 -0.00014974627 -0.0054769963 -0.06036447 -0.023196172 -0.008800987 -0.0215787
-0.0062148753 0.017008739 0.003923753 0.008691056 0.0035393366 0.014324711 -0.017517412 0.004055515
-0.028181907 0.009305892 -0.025351152 -0.0017529742 -0.004204465 0.012640561 0.0085619595 0.0071158623
-0.008738267 -0.007014202 -0.0014011534 -0.018141797 0.0049955286 -0.004979158 -0.06725137 -0.015870156
-0.05668948 -0.00088102743 0.002735668 -0.01118063 -0.0030928843 0.00448259 0.012435307 0.017213184
-0.023918673 0.005026448 -0.021583155 -0.011554148 0.01683344 -0.020894527 -0.0011478893 0.0011709881
0.01159211 0.011145548 -0.00048238903 -0.054680064 0.0016698483 -0.026153294 -0.018126799 0.0037641432
0.0070242905 -0.0017063768 -0.04533147 0.017627427 -0.021185346 0.004021259 0.007767432 0.00926894
-0.0026483194 -0.0036664403 -0.0037931502 -0.0004508461 -0.015983326 0.013921238 -0.004143916 0.00030349605
0.013450408 0.0024690563 -0.02639891 0.015432622 -0.0015708689 0.005484207 0.0013775367 -0.007072382
0.00082626427 -0.0050373394 0.009536897 -0.052885838 -0.06442172 -0.071579345 0.008510708 0.021629708
0.00095338485 0.0025991711 -0.0064583877 -0.086380154 -0.0060305824 0.009634043 -0.0021938712 0.010150081
-0.00880355 0.012621689 -0.066795595 0.005532926 0.01210298 -0.026133915 -0.07512119 -0.07453201
0.00090000505 0.0009443108 -0.03173033 -0.065302074 0.0005489596 0.009425018 -0.00082233385 -0.0076079187
0.00970798 2.249523e-06 0.018805407 0.008964485 -0.008616602 -0.0010428738 0.000244365 -6.041066e-05
0.019165734 -0.00041572342 0.025463687 -0.0063980254 0.010076466 0.022627842 0.00800452 -0.0054920767
-0.013250644 0.0047574965 -0.0045550666 0.016649554 0.021577701 0.0025013972 0.018887851 0.005731099
0.013577631 -0.013661565 -0.022962293 0.034171723 -0.000449562 -0.0040494595 0.008404647 0.016567968
0.008155805 0.004033551 -0.001992125 0.005198981 -0.0052170344 0.019996373 0.011148867 0.004384601
0.011379141 0.018167252 -0.014146998 0.029853545 0.0048467554 0.021904375 0.03208317 0.0041754153
-0.012184299 -0.13621382 0.020297952 -0.009650064 0.026964445 0.003626355 0.023060277 -0.0133487
-0.00047723975 -0.010258204 -0.03217531 -0.004708994 -0.030381983 -0.0035571232 -0.009522623 0.01919051
0.007724856 -0.0014625692 -0.05817977 -0.007387653 0.0055931816 0.004055525 -0.01840764 0.022748021

gat1.lin_l.weight f4 [512, 166]
00000000: e38c e1ba 2d95 29bb b48d bb3b dfbd 653b
00000010: 70e5 a2bb 8114 e4bc a066 4e3b 96bb 3e3b
00000020: fcdf 06bb 8761 80ba 3aa1 ddba 9eb6 09bb
00000030: ae63 af3b e794 603a f0bd 29bc 9313 5038
00000040: ae61 0ebb 1e3c 77ba beb2 efba 2667 f636
00000050: 849f 9b3a 4688 503a 340b 1b3b 2924 dd3b
00000060: 45b7 243a 03a7 2ebc d300 003a 71dc f43b
00000070: cc71 93bb 01e9 b63b b260 093b e273 25bb
00000080: 1b9b f83b 9bbe d43b e15f 0239 03f4 8639
00000090: 092f b2b9 1732 35b6 ac72 323b 4ba4 eb3a
000000a0: 9d93 2c3b 42a8 ba39 3c18 ebba 7369 0f3b
000000b0: 3f6c 3d3b 7059 0d3c 8cfe a63a 7f85 02ba
000000c0: 96fe 1fba 30fa a83b 12a5 a53b bcc5 023c
000000d0: 3a22 d3ba 5406 b4bb 4674 26bb 9045 803b
000000e0: 018f b1bb 3ed1 5bbb ca53 36bb fa07 2abc
000000f0: 6693 4ebb da7c 853a ac32 0a3c b2a3 4439
00000100: 35dd 14bb fda5 033b da42 a5ba 83ff 9bba
00000110: 0a96 373b f516 d1bb cdb1 e93a bc31 53b9
00000120: a68a 843b cea1 a738 c427 2e3b e0a6 de3b
00000130: c27a 6cb8 c41e d6b7 eec5 c637 321f 6ab9
00000140: 95e9 68bb 1a12 c6ba 7dbb 90ba 504f 7dba
00000150: cb98 0e3b 1f1f 7cba d54a 7a3b 8ea5 973a
00000160: 3671 fa3b 24f8 f63a 8892 72ba dee5 e43b
00000170: 4ac4 8bbb 6362 3ebb f730 e6b9 5783 3dba
00000180: 7de6 aa3a c84d 87ba e245 6cbb 7e4d 823b
00000190: c304 06ba 3c77 533a e5b4 b4bb 5fa6 02bb
000001a0: 1b6d 1aba 4772 213b 3a8c 26bb 06f6 dbbb
000001b0: 5fb4 16bc ff7a 85bb f51a 3cbc fa5d 29bc
000001c0: fa70 e5bb 1c89 60bb b744 82bb 7a25 38bb
000001d0: 7d34 5bbc f46a 81bc a2c0 7abb b489 9abb
000001e0: 6c94 aabb c13c b3bb 6e1c 9b3a 1adb 213a
000001f0: 4068 40bb 4222 67ba bc8b 06bb 64ae 4fbb
00000200: da0e b6bc 3af8 edbb 28f7 9b3a c0b2 1fbb
00000210: 2e48 0bbb 2553 98bb 600b 9a3b 2657 933b
00000220: ccc4 54bb fc75 cabb 231f 64bb 815f 41bb
00000230: 80c0 64b9 f9a3 0cbb 726b fbba 6b21 9e39
00000240: 7554 143b 522d 5abb 7c0c 673c a0a4 86ba
00000250: 6f28 1ebb 8e26 56bb 9162 683b 5dbc 9bbb
00000260: 26d3 9b3a c8c8 d63a f79e 5439 d50c 3dba
00000270: 0b94 d63a 5906 80ba dd50 0a3b e53c 833b
00000280: 8522 033b 7c4d c7bb 3956 cabb 3637 24bb
00000290: 6d17 d13b e36d 3a3b a183 dfbc bba7 d6ba
000002a0: 382c 453b fd6a 8b3b c75e 2bba 522d 8ebc
000002b0: 5ee3 e83a 300b bdba 4284 573a 683d 17bb
000002c0: c2b0 d1ba aae6 cfba 02bf c5b9 7671 2bbb
000002d0: 9c89 80bc cb2e 1c38 141a acba 4fec 25ba
000002e0: 403d bf3a 9de2 a739 1b43 863b e021 0cbb
000002f0: 7d49 f039 0e6a 9439 5895 d63a cb44 c439
00000300: 24c1 2639 2e67 173b 3d02 20b8 7a19 193a
00000310: 0929 1c3a 5246 ea39 36d4 053b 4497 ffb9
00000320: e09b bcb8 9181 23bb 0ed5 0db7 cdfb 4abb
00000330: 09bf 29bb 29ac 3dbb ea1e 97ba ac65 81ba
00000340: dd4c 5dba b6ef 03ba 2cb2 aa3b 02ea 073b
00000350: 289e b83a 20f3 b4ba 4dbb a5b9 dd75 9d3a
00000360: 435a 5f38 d0fc 143c 499d 79ba 9558 923b
00000370: da1f 273c ae64 3d3b 7bd4 413b 6c71 ca3b
00000380: 880b ebba 6336 fa39 edd0 e03a a2d4 ecba
00000390: 7365 0b3c 9cc9 1fba 4742 ebba bd72 bc39
000003a0: 29d8 2f3a 227d 0338 3234 073c b4ab 263b
000003b0: 4918 5d3a 8f05 16ba e692 4a3b d993 023b
000003c0: 0254 0a3c 916f 213c 1416 38ba e12e 52ba
000003d0: e58a 3a3a 2f4b 0fbb a2b3 803b 1747 713b
000003e0: abc6 d4ba 7b11 de39 eef4 b9b9 927c f6ba
000003f0: aefe b93b ab38 7b3a bfcd d2bb 57e5 50bb
-0.0017208125 -0.002587627 0.0057236794 0.00350558 -0.0049711987 -0.027841808 0.0031494275 0.002910351
-0.0020580282 -0.000979469 -0.0016909011 -0.002101339 0.005352459 0.000856711 -0.010360226 4.9609294e-05
-0.0021725702 -0.00094312604 -0.0018287522 7.3433794e-06 0.0011873101 0.00079548766 0.00236578 0.0067486954
0.0006283413 -0.010659936 0.00048829353 0.0074725677 -0.0044996496 0.0055819754 0.0020962176 -0.0025246073
0.0075868494 0.0064924485 0.00012433484 0.00025740275 -0.0003398585 -2.7000258e-06 0.0027228994 0.001797804
0.0026333102 0.00035602046 -0.00179363 0.002188292 0.002890363 0.008627281 0.0012740656 -0.0004978999
-0.0006103305 0.005156778 0.0050550783 0.007981714 -0.0016108223 -0.0054939184 -0.0025398894 0.0039145425
-0.0054186587 -0.0033541466 -0.0027820938 -0.010377878 -0.0031520962 0.0010184303 0.008434933 0.00018752998
-0.0022714857 0.002008795 -0.0012608424 -0.001190171 0.0028013014 -0.0063809105 0.0017829478 -0.00020141056
0.0040448485 7.993319e-05 0.0026573995 0.0067947954 -5.638111e-05 -2.5525114e-05 2.3695608e-05 -0.000223276
-0.0035539616 -0.0015111596 -0.0011042204 -0.00096630026 0.0021758552 -0.00096176745 0.0038191576 0.0011569725
0.0076428903 0.0018842262 -0.0009253402 0.00698541 -0.004265343 -0.0029050342 -0.000439055 -0.0007229349
0.0013038662 -0.0010322863 -0.0036052396 0.003976523 -0.0005112404 0.00080667785 -0.0055147284 -0.001993559
-0.0005890892 0.0024634765 -0.0025413171 -0.006712678 -0.009198277 -0.0040735 -0.011481036 -0.010337347
-0.0070019932 -0.003426141 -0.0039754766 -0.002809851 -0.013379213 -0.01579807 -0.003826179 -0.0047161225
-0.0052056815 -0.005469889 0.0011834034 0.0006174311 -0.0029359013 -0.00088170555 -0.0020530066 -0.0031689638
-0.022223879 -0.007262257 0.001189922 -0.0024368018 -0.002125274 -0.0046485835 0.004701063 0.004496473
-0.0032465933 -0.0061786156 -0.0034808598 -0.0029506388 -0.00021815486 -0.002146004 -0.0019181801 0.00030161007
0.0022633348 -0.0033291173 0.014102098 -0.0010272451 -0.0024132987 -0.003267679 0.003545914 -0.0047526793
0.0011888489 0.0016386742 0.00020277115 -0.000721169 0.0016371025 -0.0009767517 0.0021105327 0.004005062
0.002000959 -0.006082235 -0.0061748293 -0.0025057322 0.0063809664 0.0028446845 -0.027284445 -0.0016376892
0.003008617 0.0042546974 -0.0006537255 -0.017355595 0.0017767956 -0.001442289 0.0008221307 -0.0023077372
-0.0015998113 -0.001586159 -0.0003771708 -0.0026160157 -0.015690617 3.7236878e-05 -0.001313033 -0.0006329463
0.0014590397 0.00032021562 0.004097355 -0.0021382496 0.0004583112 0.00028307777 0.0016371412 0.00037435288
0.00015902944 0.0023102271 -3.8149057e-05 0.0005840283 0.00059570424 0.0004468435 0.0020420677 -0.00048750092
-8.9935726e-05 -0.0024949054 -8.453861e-06 -0.003097284 -0.002590122 -0.0028941727 -0.0011529599 -0.000987222
-0.00084419345 -0.0005032973 0.005209228 0.0020738845 0.001408522 -0.0013805367 -0.00031610802 0.0012013275
5.3251406e-05 0.009093478 -0.00095220335 0.004466126 0.010200465 0.002889912 0.002957611 0.0061780717
-0.0017932514 0.00047724237 0.0017152108 -0.0018068741 0.008508074 -0.0006095411 -0.0017948829 0.0003594364
0.00067079306 3.1349373e-05 0.00825219 0.0025431933 0.00084341 -0.0005722874 0.0030910312 0.001992455
0.008442881 0.00985326 -0.0007022333 -0.000801785 0.0007116034 -0.0021864881 0.003927664 0.0036816054
-0.0016233524 0.00042356164 -0.00035468437 -0.0018805435 0.005676112 0.00095833343 -0.0064332183 -0.0031874978

gat1.lin_l.bias f4 [512]
00000000: df29 2ebc 2d51 84bc 7434 9ebc ff3d 033d
00000010: 0176 fc3a 8f2c 7a3c 6f7c 463c 2681 0d3d
00000020: ddc5 743d 0373 de3c 285d 2f3c 2b6d 5d3d
00000030: 89d8 983c 987e edbc 25d3 bd3c 140c 9d3d
00000040: f78a 243d d998 c23c 84a8 de3c 6ef5 51be
00000050: 9fab 333c 09bb 8a3d ca46 e1bc 7b7f 593c
00000060: 7d78 1ebc a608 3b3c fcfb c03c 5e16 353c
00000070: 4bfb efbd 34ec d5bc e8e8 0d3c 4132 a8bc
00000080: d0b7 d5bc 2acb f83c d99b c83c de39 33bc
00000090: 9eb1 2a3d d39b 2d3d b5c1 8a3c 43f7 253c
000000a0: 3eb8 493c 81e3 27bd 1a04 f83b a4f2 623c
000000b0: f055 9a3b a6bd 803b 7e81 293c 624a ab3b
000000c0: c770 453b bd9c 393b d8cc 4c3d 4572 f83b
000000d0: 93f3 e73c d7fa cebc 6b8c 443d 13d2 0f3d
000000e0: abb8 9cbc 3872 403d 0cf2 ae3c e8be 31be
000000f0: d0e6 8bbc 7ee9 74bc 8fa5 433d 1c8e 3c3d
00000100: f859 303c 577d 193d 8255 a63d a95f eeb9
00000110: bbfd 283d 9705 c0bb 4f54 2c3a f50a 143d
00000120: 73a8 1c3c 684e 0abc 59df e73b dd39 4bbb
00000130: 71a4 e8bd a3e6 77bc 3fb5 243d 459e d2bc
00000140: d1ff 3a3d c1c1 f23c 3402 673c cde6 663c
00000150: 8479 683c 7083 a63c 9d71 03bd ea70 813d
00000160: ed0a 3ebd 5151 143d 095a c1bc 44cc 433c
00000170: 09c4 68bb acde 9f3c 53c6 2f3c af3e 593c
00000180: 3ea3 63ba 37b6 ddbb 0410 923b d040 233d
00000190: 220c 8e3b 5724 9c3c eb50 e8bd fc50 76bc
000001a0: 5faa 8bbd f54c e739 2f63 8d3c fe5d dd3c
000001b0: 5bda b0ba a471 123c c0f2 b53c a365 d03c
000001c0: acd5 f8bc 4f66 863c 7dde 19bb d38d 033b
000001d0: 4fd6 503c 146b 83bc 78f6 913c dff2 493a
000001e0: 52b0 013d 2016 c83c 1e59 a03c 0cd3 d7bd
000001f0: 047e b93b 28c9 2ebd 7b96 aabc 57f7 083c
00000200: 1d47 ad3b fff6 373c 4cd5 9bbd a216 333d
00000210: eb81 e4bc b1e8 cf3c bf42 8b3c eedd 7f3c
00000220: 697d b73c d758 d639 7c18 dabb 43ee d83b
00000230: 89d3 5fbc 62f8 053d 6c81 09ba 3314 e03b
00000240: 5bbf 843c 9b29 683b e183 c9bc 0686 973c
00000250: 3e9f c9ba 0aa9 823c 1747 a23c 565b e83b
00000260: 4704 ae3b 6b35 21bb 369c 5a3c d326 adbd
00000270: 215b b5bd d8fd d0bd a68b 1c3d c026 3e3d
00000280: fad9 bb3a e4dc cf3b bdcf 923b 63db fabd
00000290: 6778 37bb ff6a 2e3c 240f a23b 2152 553c
000002a0: 07b9 6dbb 9fef 823c 6918 1cbe d3e0 693c
000002b0: ec3e 033d d539 41bd 4a60 0cbe 8792 d6bd
000002c0: 9eae da3a d21f c2bb 3548 0cbd 16be 11be
000002d0: 0ba7 3f3b 7403 9a3c 9b11 003c 860b b13c
000002e0: 2379 a23c 7de3 3a3c ae22 ec3c 2468 2a3c
000002f0: 7192 3b3c 595b 2c3c 8974 aa3b 2783 393a
00000300: 1bc9 1c3d 8ab8 8e3b a3ee 303d 06a1 a2bb
00000310: 086c d53c aa62 223d d328 8f3c b862 ebbb
00000320: 0ba1 d6bc 137d 1d3c 514b bb3c 1f44 af3c
00000330: 2292 023d a1b6 6f3c bfd2 063d 1af9 e43b
00000340: 9eea f63c a4f7 b8bc d03a 323c 7813 723d
00000350: 2796 a1bb 87d4 b5bb 0bab 593d e862 013d
00000360: 1322 453d 56b6 7a3b 895d 54bb 21a3 9c3c
00000370: 10bf 4cbc 947a 353d afd6 7c3d e222 8b3c
00000380: a910 e33c eae7 f53c 173f 76bc c835 6f3d
00000390: eab3 da3c 5c5a 0d3d b082 513d 5653 da3c
000003a0: 55d5 e33b b162 84be d436 443d 0cdd a6bc
000003b0: 6c5c 4e3d 6ba3 fb3b 6de7 ae3d 5ce7 013c
000003c0: 99d2 853d 4990 9fbc caef 63bd 1db6 db3c
000003d0: 1558 663d 2af3 893b 88da 4dbc 6013 b13d
000003e0: fe11 043d b320 26ba 1d02 36be e1ed 91bc
000003f0: 2358 453c e974 203c a7f5 e7bc b7b2 b73d
-0.0106301 -0.016151989 -0.019312121 0.032041546 0.0019261242 0.015269413 0.012114628 0.034546994
0.05975901 0.027154451 0.0107033625 0.05405919 0.01865794 -0.028991029 0.02317197 0.07668319
0.04017159 0.023754524 0.027179964 -0.2050378 0.010966211 0.067739554 -0.027499575 0.013275023
-0.009672281 0.011415636 0.023557656 0.011052696 -0.11717852 -0.026113607 0.008661486 -0.020531775
-0.026088625 0.030370314 0.024488376 -0.01093909 0.041673295 0.042384934 0.01693807 0.010129753
0.012311993 -0.04098845 0.0075688483 0.013851795 0.0047099516 0.003928858 0.010345815 0.005227373
0.0030127035 0.0028322183 0.05000004 0.0075819814 0.028314387 -0.025266094 0.047985476 0.03511245
-0.019131025 0.046983927 0.021355651 -0.17357981 -0.017077833 -0.014948247 0.04776531 0.046033964
0.010763638 0.03747305 0.08121778 -0.0004546617 0.0412576 -0.0058600414 0.0006573842 0.036143262
0.009561646 -0.008441545 0.0070761857 -0.003100983 -0.1135949 -0.015130672 0.040211912 -0.025710234
0.04565412 0.029633405 0.014099646 0.014093113 0.014189128 0.020326346 -0.032090772 0.06320365
-0.04639714 0.036210362 -0.023602502 0.011950556 -0.0035517237 0.019515358 0.0107284365 0.013259574
-0.0008683688 -0.0067661065 0.0044574756 0.039856732 0.0043349424 0.019060297 -0.11343559 -0.015033957
-0.06819605 0.0004411709 0.017259208 0.027022358 -0.0013492809 0.008938227 0.022210479 0.02543909
-0.030375324 0.016406206 -0.002347856 0.0020073547 0.012746408 -0.01604227 0.01781772 0.0007703732
0.031662293 0.024424613 0.019573744 -0.10538301 0.005660774 -0.042672306 -0.020823708 0.008359752
0.0052880184 0.011228322 -0.076090425 0.043722756 -0.027893981 0.02537951 0.0169996 0.015616877
0.022398667 0.00040883452 -0.006655751 0.0066202 -0.013661274 0.03270758 -0.00052454206 0.0068383454
0.016204527 0.003542519 -0.024599018 0.018496525 -0.0015382541 0.015949745 0.019809289 0.007090966
0.0053105685 -0.002459849 0.013342908 -0.08454671 -0.08855272 -0.10204667 0.038219117 0.046423674
0.001433193 0.006343471 0.0044803307 -0.12248876 -0.002799535 0.010645627 0.0049456526 0.013020069
-0.0036273615 0.0159834 -0.15243687 0.014274794 0.03204243 -0.047174294 -0.13708606 -0.104771666
0.001668412 -0.0059242034 -0.03424855 -0.14232668 0.0029243852 0.018800475 0.0078166975 0.02161194
0.019833153 0.0114067765 0.02882513 0.010400806 0.011448489 0.010519826 0.0052018804 0.0007076733
0.038277727 0.004355495 0.04319633 -0.004963043 0.02605249 0.039644875 0.017475521 -0.007183399
-0.026199838 0.00961234 0.022863062 0.021394787 0.031877644 0.0146309445 0.032915827 0.006987703
0.030141171 -0.022579022 0.01087828 0.059100598 -0.0049312296 -0.005549017 0.053141635 0.031588465
0.0481282 0.0038255653 -0.0032404384 0.019120755 -0.012496725 0.044306353 0.061728176 0.016984407
0.027717905 0.030017812 -0.01502969 0.0584009 0.026697118 0.03451 0.051150024 0.026651066
0.0069529214 -0.25856546 0.04790385 -0.020369075 0.05038111 0.007679393 0.08540235 0.0079286955
0.06534309 -0.01947798 -0.055648603 0.026820237 0.056236345 0.0042098956 -0.012564309 0.086462736
0.03224372 -0.000633727 -0.17774244 -0.017813625 0.012044939 0.009793499 -0.028315378 0.08969634

gat1.lin_r.weight f4 [512, 166]
00000000: 092b 82bc 69d7 76b9 90ae cd36 56ac 21b9
00000010: beb0 ca38 97de 23ba 8a49 013b 2e23 413a
00000020: ed00 b8b9 9df3 3bb9 cbf6 93b9 a814 08b9
00000030: 9d38 393b b0f3 c73a 1f9e 2fba 48b1 80b9
00000040: 6034 9c39 e7dd 77b9 464a a539 0dc6 66b9
00000050: d032 0638 9e44 f93a eb56 4539 d3c0 aab9
00000060: 49d5 60b9 9826 e5b8 95a4 113b 4fef 243b
00000070: ea0b a5b9 a1cb d0b8 1444 5f38 f3e5 75b9
00000080: 641c 2e3b 552d e03a f79f c539 1e3b dab8
00000090: d5ec 6a39 e65a 33ba 089e d3b8 9287 1d3a
000000a0: 1db3 59ba 8a67 4a39 4aed 1e39 0795 6eb8
000000b0: 7105 273a c8a9 623a 92db a3b8 ceb3 ffb8
000000c0: bea9 56b9 0ae3 74b9 ff58 213b 19c5 b53a
000000d0: 60d3 fdba 2a5f 35ba 3fad 5a3a 40b1 ccba
000000e0: bbd4 50b9 0edc c0b9 4d95 5ab8 243f 7239
000000f0: 81d0 e635 b280 80b9 8253 113b 5900 ec3a
00000100: fffe 1639 c5ee 8e39 a812 f2b8 0c5a 3f38
00000110: 4859 bf3a 71f5 033b a066 433a e63a 96b9
00000120: f14b 5fba 7dbb 48ba de8d 8eba 03d5 9eba
00000130: 2fef 773a 7e46 dbb8 5cfb 6739 ebd2 87ba
00000140: a564 2b3a 5d96 143b 03c5 61b9 e285 46ba
00000150: 81d3 8437 17d4 70ba dd98 223a 5bd3 843a
00000160: 0817 113b 485e d938 50f8 05ba 8173 03b9
00000170: e507 57b9 d39a bbba 4dcd f0b9 0117 edb7
00000180: dc7f 543a b99d 65ba 4235 81b9 1303 8cb9
00000190: d934 0d39 1ca9 5337 0236 4039 7560 97b9
000001a0: 4553 213a 1c4a 0f3b a3d1 b8b8 b297 0eb9
000001b0: 0a02 44ba 175d 1339 b5a7 913a 9736 133a
000001c0: ab41 c8ba cc26 f3b9 aa6d f03a b3d6 5fba
000001d0: ccd1 643a 4ad3 b43a 3436 98b9 45c0 b937
000001e0: b07f 8ab8 21f5 67ba fe2e 89ba a5bd 8db8
000001f0: 4176 31b9 46cc b439 3942 11ba fad4 ecb9
00000200: 769c a7b9 9286 113a 4a73 fe3a fca7 1f38
00000210: 07e3 10ba 3454 14ba bf34 8a39 d570 87ba
00000220: 50b8 263a 0844 603a 96d3 173b 4292 963a
00000230: 4619 b6b9 9f4e 22ba 574b 4539 468b 3aba
00000240: aa15 f9b9 43c9 9639 d668 0b3a d339 2439
00000250: c790 64ba 98df 033a ebac c33a 69a0 bbb9
00000260: c7c6 943a aa8f e639 2241 3fb9 2e60 90ba
00000270: 4383 d2b9 85a4 96b9 bdeb 953a ee48 3f39
00000280: 0ade 9db8 8afa aeba 4114 85b9 255c b5bb
00000290: 8933 4fba a8a0 02ba bad9 6bbb 8d57 b0b9
000002a0: 6e9f 833a 3fcf 4239 9330 ba39 1ec6 94b9
000002b0: ef53 8e3b d70c bdb9 2f21 03b9 8891 1eb9
000002c0: 92c2 cdb8 d2b6 2739 6cc5 d7ba e49e 13ba
000002d0: 6689 8139 6d21 e0b7 594c 6aba 2331 36ba
000002e0: 7e40 e4b8 7b1b 74b9 4c37 95ba 058a 3dba
000002f0: 20f2 883a 4744 aaba 9aeb 3639 c3a5 d8ba
00000300: 891b 58ba 45c5 7439 71a6 bbba ba72 2db9
00000310: 02d0 f439 c705 293a 1cf7 eaba e848 dcb9
00000320: d3e1 1fbb 3a87 7c3a 22ff 72ba 047e 7cb8
00000330: 4f27 513a 61df c0b9 a721 5fb9 65ce b339
00000340: db57 203a 6d35 3cba 2e4a 83ba 4715 a2b9
00000350: 018c 5fb9 4132 00ba 0857 cb39 dffd dc36
00000360: c5d6 c2ba 941b c1ba 9abf b9ba e4c1 5a3a
00000370: 46cc 0a39 cf6e 53ba 0c7e 51bb 7cff e1ba
00000380: b664 18b9 d6d2 cfb9 01d6 c539 fa43 313a
00000390: 37f0 8438 63ff c839 4675 9e39 d4fb c4b7
000003a0: 9ae0 803a 767d e939 e09c 3cba 727d 5f3a
000003b0: 13e9 b638 bdcd 3a3b 9183 c5ba 5689 5c3a
000003c0: 9790 1bba e86c f33a 708e 00b7 0375 2d3a
000003d0: 2ebb 183a 8683 d3b9 04a1 efb9 63e5 0136
000003e0: cb3e 7939 f11f 9bba 84eb 8139 3505 97ba
000003f0: 4904 bf3a df9a 393a 12dd 8a3a 8569 e8b9
-0.015889661 -0.00023540635 6.129798e-06 -0.00015418357 9.6650314e-05 -0.0006251125 0.001972767 0.0007367608
-0.00035095905 -0.00017924463 -0.000282219 -0.00012977666 0.0028262504 0.001525512 -0.0006699282 -0.00024546147
0.0002979366 -0.0002363842 0.0003152659 -0.00022008289 3.1995412e-05 0.0019017642 0.00018819763 -0.00032568592
-0.0002144176 -0.000109267596 0.0022223343 0.0025167053 -0.0003148013 -9.956142e-05 5.3230746e-05 -0.00023450684
0.0026567215 0.0017103354 0.0003769395 -0.000104060615 0.00022404206 -0.0006841853 -0.000100907 0.0006009276
-0.0008304583 0.00019302792 0.00015156451 -5.6882414e-05 0.0006371355 0.0008646515 -7.813344e-05 -0.00012192839
-0.00020471864 -0.00023354232 0.0024619696 0.0013867944 -0.0019365363 -0.00069187826 0.0008341856 -0.001561679
-0.00019915674 -0.00036785047 -5.2114297e-05 0.0002310244 1.7197018e-06 -0.00024509948 0.0022175019 0.0018005475
0.00014400108 0.00027262248 -0.00011542934 4.562181e-05 0.0014598751 0.0020135308 0.0007453952 -0.00028654112
-0.0008518091 -0.00076573325 -0.001087602 -0.0012117926 0.00094579434 -0.00010455864 0.00022123515 -0.0010362541
0.00065381295 0.0022672631 -0.00021531065 -0.00075730507 1.5834115e-05 -0.0009186877 0.0006202588 0.001013379
0.0022138972 0.000103649276 -0.0005110549 -0.00012536162 -0.00020506939 -0.0014313109 -0.00045929328 -2.8263314e-05
0.0008106211 -0.0008759159 -0.00024644478 -0.0002670517 0.00013466495 1.2615954e-05 0.00018330666 -0.0002887283
0.0006154071 0.002186424 -8.8128516e-05 -0.00013598686 -0.00074771105 0.00014053691 0.0011112603 0.00056157395
-0.001527836 -0.00046377478 0.0018343229 -0.00085387676 0.0008728772 0.0013795879 -0.00029032084 2.2143251e-05
-6.6041364e-05 -0.0008848478 -0.0010466275 -6.758728e-05 -0.00016924088 0.0003448447 -0.0005541179 -0.00045172108
-0.00031969295 0.00055513636 0.0019413021 3.8065e-05 -0.0005526994 -0.0005658299 0.0002636071 -0.0010333309
0.0006359862 0.00085550593 0.0023166887 0.001148768 -0.00034732575 -0.0006191525 0.0001881545 -0.000711609
-0.00047509122 0.0002876018 0.0005318051 0.000156618 -0.0008719083 0.00050305715 0.0014928853 -0.00035786934
0.0011350744 0.00043976057 -0.00018239443 -0.0011014992 -0.0004015212 -0.00028732806 0.0011438053 0.00018242348
-7.5277014e-05 -0.0013349813 -0.00025382827 -0.005534666 -0.00079041027 -0.0004983046 -0.003598793 -0.00033634566
0.0010042021 0.00018578487 0.00035512875 -0.0002837637 0.0043435018 -0.00036058456 -0.00012505495 -0.00015122269
-9.811403e-05 0.00015994467 -0.0016462035 -0.00056312815 0.00024707167 -2.6718446e-05 -0.0008937768 -0.0006950071
-0.000108839 -0.0002327989 -0.0011384278 -0.00072303443 0.0010448135 -0.0012990319 0.00017444641 -0.0016528893
-0.0008243849 0.00023343142 -0.0014316571 -0.00016541305 0.00046694285 0.0006447699 -0.0017926428 -0.0004201599
-0.0024396076 0.00096331874 -0.0009269585 -6.0198843e-05 0.0007978575 -0.00036787524 -0.00021279474 0.00034295316
0.0006116607 -0.0007179592 -0.0010016614 -0.000309149 -0.00021319093 -0.0004890301 0.0003878402 6.5860654e-06
-0.0014865032 -0.001473295 -0.0014171482 0.0008344932 0.00013236803 -0.0008065523 -0.0031966 -0.0017242278
-0.00014533367 -0.00039639202 0.00037734213 0.00067621435 6.338994e-05 0.0003833725 0.00030223484 -2.3482287e-05
0.0009832561 0.000445347 -0.0007195007 0.0008525468 8.72185e-05 0.0028503977 -0.0015069117 0.00084127986
-0.00059343263 0.0018571885 -7.662558e-06 0.00066168624 0.0005826232 -0.0004034305 -0.00045705598 1.9356019e-06
0.00023769883 -0.0011835081 0.0002478027 -0.0011521938 0.0014573421 0.00070802675 0.0010594449 -0.00044329106

gat1.lin_r.bias f4 [512]
00000000: 91a3 acb9 6a91 a8b8 9198 533b 253b 103b
00000010: dd91 ca3a bab0 853b 017f 8a3c d5da f23a
00000020: 8f96 0f3d 9258 4a3a 01fc e8b9 cd0c 283c
00000030: ecd5 153b 9508 9b3a be50 823c d203 ec3c
00000040: 8d5b a43c 0ab1 ca37 0b9d 0e3d c51b 273c
00000050: 4c15 943a 8355 383d c99c 0bbb a752 f73a
00000060: d00d 153b b5b7 d53a b9da e4b7 9316 a73c
00000070: 048e 433c f654 df3b f441 7fb9 eb73 cab9
00000080: 15f4 b5bb d8f3 b339 863b 1c3b 4653 df3b
00000090: f93d d43b af28 9d3c 874a 113b 7f27 5b3b
000000a0: 75a2 f3bb 0631 f5bb 94f1 4a3c 3254 eb3b
000000b0: 2a6c 7fbb 38a8 37bb 1bf6 9f3b dfa5 823c
000000c0: f241 3f3c 72e7 163b 96da 133c 7ebb 2f3c
000000d0: d45c 1e3c 1329 66b9 98bb d23c ac19 bb3a
000000e0: 767a 9f3b 59c1 193c d0a2 713b 1864 ad3a
000000f0: cf7b 93ba ec74 ed37 bc4e f73c c3db 0c3c
00000100: 649b 5e39 c426 373c f3c5 6b3d 8540 9f3c
00000110: 98fc d13c eb8d ba3b 7479 163c 4174 86b9
00000120: ef60 563b ccda 0a39 c377 a3ba 7bb4 3fba
00000130: 693a 63ba ad0f 153c 4b68 7b3d 106e b1bc
00000140: 48da 5c3d 20cb 0e3a 2e8c 37ba 60ab 203c
00000150: 620c b43b a074 1b3c cffe b73a 6f6b 413d
00000160: e48b 7ebb 806a e83c bf75 3a3c 1f1d 58bb
00000170: 4141 a539 8d71 23b9 2f06 353b 0a63 f5ba
00000180: b239 07bb 5733 0b3d 8637 4f3a 8082 563d
00000190: ab07 69ba fb40 9c3b 7275 6bba 1156 fb38
000001a0: a645 dbbb 185a 4639 5a1f 05bc 5867 123a
000001b0: 4c20 363b a077 fc3b 4a26 813c 1dba cd39
000001c0: 48c5 94bb 2f9c 6f3a 203a 8b3c a841 a93c
000001d0: f194 0238 61aa 203b 2d33 2c3c 288d 73ba
000001e0: 73f4 493a 3d32 c538 3911 5f3c 7ef4 c03a
000001f0: 2e9b 9eb8 9f34 f6ba f7d6 be3a 71b6 3db9
00000200: c8ed 9fb7 d213 e7b9 f5f9 183b 1663 75bb
00000210: f533 c9ba c821 8f3c 8184 b43b ec42 f83b
00000220: a1ac d83c 626c 353b 8e63 ca39 1bc6 153b
00000230: 82e4 a1b6 af67 22b9 db9a f23b 8dcf 103b
00000240: 4cf0 943b 5210 1b3b d135 803a 177a ec38
00000250: 76ba dfb7 c28c 4c3c 5a1c 8e3c 7e4f d8ba
00000260: 8799 2e3b 5578 883b 7f46 c738 efd4 2c3c
00000270: 202f 913b b879 8e3c a7ad d6ba 4f97 203c
00000280: a29c 2b3a 3c66 8b3b e45d 0a3c f128 753c
00000290: 21ab 233c 63e2 5d39 3ba5 293c 6fc6 1b3b
000002a0: a0e4 593b aed9 283b e5b8 653b 43e8 dcba
000002b0: f392 353a 4c7f 903b 133e ef38 1add a13b
000002c0: cde5 30b9 b4da 6339 5766 e23b a013 31ba
000002d0: 2f5c 163a 58a5 c53b 3416 d638 eab1 2dbb
000002e0: 7eb5 003b 9e42 4d3c 18ea 5bb7 40ab 8039
000002f0: bf6c 803a 0374 b83b 12df a63b f3e6 9739
00000300: 5cb4 59bb e6e5 1ebb 276b acb9 0250 58b7
00000310: f4ef 5b3b b161 ceba b4eb 363b 33f2 0e38
00000320: 8c95 1cb9 b262 15bb 84cb ec3b 6abb 153b
00000330: 1bda debb 6734 293c ba7c c03b ad36 eb3a
00000340: a9e4 e03b b8d4 c83a e9c9 243b 2e0d d03a
00000350: 5a38 933a 0a32 88bb 484b 96bc f87c 2c3a
00000360: a11d e03c 833b ef38 de68 d139 f093 303c
00000370: 2570 8339 e5fe c43b 0669 e93c 6755 1c3c
00000380: 6033 0ebc f292 013a db41 883a de12 303b
00000390: 20f5 37bb f66c 65bc c4b5 ebbb 3922 a4bb
000003a0: 2dee 343a 2a31 273d 386b 17ba a6bd 5139
000003b0: 8294 35b9 bc69 5038 3a02 de3a 47e5 60bb
000003c0: 7f2d e0ba 9c6c 7b39 e2ab d83a c1dc 17bb
000003d0: 514b 223d 8f13 d33b 4f5c 23bb 81e9 173b
000003e0: 5322 c03b 1d95 e739 ec95 8b3a 89b0 b539
000003f0: 5b5b 3c3c d223 9b37 e5da 1e3b cfdf b93c
-0.00032928263 -8.03795e-05 0.0032286982 0.002200791 0.0015454848 0.0040799053 0.016906263 0.0018528352
0.035055693 0.00077188865 -0.00044438246 0.010256958 0.0022863103 0.0011828119 0.015907642 0.028810415
0.020063186 2.4162717e-05 0.034817737 0.010199492 0.0011297851 0.045003425 -0.0021303168 0.0018869237
0.0022743829 0.0016305359 -2.7281569e-05 0.020396506 0.011935715 0.006815548 -0.00024343265 -0.00038614808
-0.0055527785 0.00034323218 0.002383919 0.006815347 0.0064771143 0.019184439 0.0022169666 0.003344029
-0.007435138 -0.0074826507 0.012386698 0.0071816677 -0.0038974383 -0.002802385 0.004881633 0.015948234
0.011673437 0.0023026136 0.009024283 0.010725854 0.009665687 -0.0002194981 0.025724217 0.0014274619
0.0048668934 0.009384477 0.0036870725 0.0013228683 -0.0011252108 2.8307048e-05 0.03018891 0.008597317
0.00021229457 0.011178676 0.057561826 0.019439945 0.025633141 0.0056931875 0.00918423 -0.00025645088
0.0032711586 0.00013242214 -0.0012471605 -0.00073129655 -0.00086680666 0.009097976 0.06137876 -0.021658927
0.053919107 0.0005447138 -0.00070017844 0.009806484 0.00549464 0.009488255 0.0014037731 0.047221597
-0.0038840706 0.028371096 0.011380612 -0.0032976342 0.0003151987 -0.00015587192 0.0027622094 -0.0018721533
-0.0020633754 0.03398451 0.0007904697 0.05237055 -0.0008889387 0.0047684885 -0.0008982039 0.00011984644
-0.0066916524 0.00018916314 -0.008125151 0.00055848574 0.0027790247 0.00770469 0.015765328 0.00039239312
-0.0045401193 0.00091403996 0.01699549 0.02066119 3.1133128e-05 0.0024515616 0.010510248 -0.0009290748
0.0007703967 9.4030496e-05 0.013614946 0.0014721302 -7.5629316e-05 -0.0018783993 0.0014559914 -0.0001809241
-1.9065003e-05 -0.0004407452 0.0023342345 -0.0037443093 -0.0015350567 0.017472163 0.0055089598 0.007576337
0.026449503 0.002768301 0.00038602616 0.0022853676 -4.8247757e-06 -0.00015488149 0.007403714 0.0022096366
0.004545247 0.002366085 0.0009781664 0.00011276098 -2.66705e-05 0.012484731 0.017347503 -0.0016503183
0.0026641802 0.0041647353 9.5021904e-05 0.010548814 0.0044306666 0.017392024 -0.0016378657 0.0098017
0.00065464724 0.0042541306 0.008445237 0.0149633745 0.009989531 0.00021160538 0.010354335 0.0023769399
0.0033247843 0.0025764513 0.0035052833 -0.0016853887 0.0006926499 0.004409706 0.0001140797 0.0049396874
-0.00016870275 0.0002172988 0.0069091725 -0.00067549385 0.00057357823 0.0060316734 0.00010208451 -0.002650375
0.0019639428 0.01252809 -1.3107921e-05 0.00024541654 0.0009798034 0.005629064 0.00509251 0.00028973035
-0.0033219075 -0.0024245917 -0.0003288623 -1.28932315e-05 0.0033559771 -0.0015745667 0.0027911486 3.4081004e-05
-0.0001493303 -0.0022794423 0.0072264094 0.0022847303 -0.0068009025 0.010327435 0.0058742436 0.0017945372
0.006863196 0.0015322184 0.0025144762 0.0015873068 0.0011232004 -0.0041563557 -0.018346444 0.0006579901
0.027357878 0.00011407493 0.0003994172 0.010777459 0.0002506982 0.006011831 0.028492462 0.009541846
-0.008679241 0.0004942856 0.0010395603 0.0026866714 -0.002806969 -0.014003029 -0.007193299 -0.0050089625
0.0006901946 0.04081837 -0.000577617 0.00020002443 -0.00017316829 4.9689537e-05 0.001693792 -0.0034316347
-0.0017103403 0.00023977685 0.0016530717 -0.002317235 0.03962261 0.0064415406 -0.0024926846 0.002317995
0.0058634668 0.00044170851 0.0010649539 0.0003465454 0.01149639 1.849412e-05 0.0024239358 0.022689728

gat2.att f4 [1, 8, 2]
00000000: 5535 b1be bdeb a6bd bd52 23be 3a20 2b3e
00000010: 350f b1be ae31 fa3c 285b 063e e34b 753e
00000020: 6e18 29be 9423 ab3e 50a2 4f3e 22b3 d83b
00000030: 0334 123e bdeb 993e 7294 5ebe 07ed 443e
-0.34611002 -0.08150432 -0.15949531 0.16711512 -0.34581915 0.030541267 0.13120711 0.2395473
-0.16513225 0.3342558 0.20276761 0.006613151 0.14277653 0.30062667 -0.21736315 0.19231044

gat2.bias f4 [2]
00000000: e493 cfbe ba93 cf3e
-0.4054252 0.40542394

gat2.lin_l.weight f4 [16, 512]
00000000: 188f 74bb 3a40 123c 0151 6dbd c069 a6bb
00000010: 545c e1bc ff7d 80bd 6617 90bd 0b39 2ebd
00000020: 3f67 88bd 2c65 51bd 7fa7 2a3d 0445 cabb
00000030: c8f5 79bd e392 703d aa5c 42bd 20fd 82bd
00000040: e3cc 2c3d eb81 c3bb 46e2 70bd baab a63d
00000050: b8f2 cfba 24b0 7cbd 2923 b4bd a187 2f3c
00000060: fdae 8fbd 9764 a3bc 2ddb 733d b9d9 88bc
00000070: 2116 9d3d 2e15 923c a9b1 b63c 0c84 973c
00000080: bd4b dbbd fc51 a63c dfaf 8bbc 11dc 5f3c
00000090: 0868 563a c875 fcbc 93b7 5bbb 5519 0839
000000a0: 8d0e 7abd 7fdc fbbd 5ccb 663c eb2a 1dbd
000000b0: 377e 4ebd 03e6 b7ba bee8 78bd a503 6d3d
000000c0: f371 0a3c 1380 993d 2412 c9bc 3483 283a
000000d0: a531 a2bd 4bba 9d3c bde3 7dbd c34c 45bd
000000e0: dcb3 963c 1be6 a3bd b693 3cbc 7b7b 613d
000000f0: 82a6 a73b fe07 89bb c3d8 4abd bacd 37bc
00000100: 508d da3c 0012 16bd 3f57 74bd 2d1b a9bd
00000110: 996b 58bd cdc0 6abd e251 2abd 8540 bebc
00000120: bbf1 dbbc e89d a33c 1fed bb3c d0f1 14bd
00000130: 00b7 513d e8b5 98bd 9b77 67bd cf19 90bd
00000140: 3c26 86bc 0338 c3bb 8525 2a3c 0884 e4bc
00000150: 623b a7bd 31b9 14bd fd34 ad3c aa93 82bd
00000160: 4781 073d aa85 fbbd 05a7 d9bd 410e 28bc
00000170: d0b5 65bc 301f f1bc 0bdb 603d 49c5 0ebc
00000180: 4191 d2bc a2d2 04be 770a 17bd 58b6 b4bc
00000190: 0196 653c 9727 2ebd 8a52 133d ff88 b9bd
000001a0: 0ad6 bbbd f66e 46bb 60ca 2bbd d2d4 71bd
000001b0: 94d9 01bd 12f0 da3b 285d 98bd 9043 37bd
000001c0: ac8d cbbd 6ddf bfba 373a 40bd 423a 8dbd
000001d0: 9506 46bd cf9a bb3c e773 80bd a5d4 963c
000001e0: 09fe 0dbd 167d 26bd c16f 33bd 466b 783d
000001f0: d01b bbbb 7ac1 e73c f26b 953c 6d02 95bb
00000200: c4cd f0bc 2995 06bd f159 973c d385 f6bc
00000210: 2dc5 d43b f206 ebbc cd25 56bd 2e96 213d
00000220: 3b93 8ebd 0cf1 53bb 791c 4b3b ce0e 1ebd
00000230: ba6a 42bd 72bd d5bc 16c5 18b9 828c ecbc
00000240: 7cf5 86bc 002e 173c 6d36 383c 6277 85bb
00000250: c598 3b3b 48ce b9bc 0632 5ebb 841f 44bd
00000260: 34b9 ccbb 290e 67bd b70e 73bc 89a6 cd3c
00000270: 40e6 623d 07f0 483d 6170 42bd e5cf 8dbb
00000280: 5157 17b8 e528 65bc 6cf8 3d3d aeae 373d
00000290: d928 76bc dbf3 e239 329a 2bbb 64a1 ce3b
000002a0: 4e10 203c edc5 6abd d82b 4e3d 17dd 7f3d
000002b0: 4a7a 46bd 3233 db3c bd4f 6b3d cd8c 223d
000002c0: f7b9 20bb c7d5 89bd de77 df3b 594f 833c
000002d0: e26e 6cba 3121 75bd 4276 84bd 10a7 3cbd
000002e0: d1a3 e6bc 6a30 763d 4ac9 2abd 61fe 2e3b
000002f0: 05cf a7bd d723 993d 7041 ba3b 8061 5ebb
00000300: 2291 113a eb0e 4c3d e0e0 683b d893 1a3c
00000310: 975b 49bd d239 88bc f11e 803d 318e 483c
00000320: 98fb 893a 8bb3 2e3d 9ddf 93bd c475 39bc
00000330: a5f4 093d 85ab a6bb 5432 e6bc 7109 0abc
00000340: 65b3 48ba e1e3 1c3c 7846 9dbd 5f03 e03c
00000350: c29c d43b 6b2c 94bc 3e00 60bd 6851 76bd
00000360: a2ab 9fbc ad6b bb3c fc87 a33b 1460 063a
00000370: af5a 11bb d451 89bd ba0f 31bd 6297 a6bc
00000380: 0b4d 38bd d312 cfbb 919e 9339 48e9 83bc
00000390: 43c0 b3bc 5d0a 24bd 33b9 a7bd 675a 4abd
000003a0: 467b 80bd 3f52 913d 0803 9cbc 0345 a93b
000003b0: daf2 e43c 90da 043d b827 9cbd 3ebd 5cbd
000003c0: f614 55bd 0dc3 2cbb 3a01 c03c a827 e0bd
000003d0: 3626 a0bd 21c5 a7bd fa20 a13c 791d a3bd
000003e0: b907 03bd f1b9 13bb 5f00 433d f322 e03b
000003f0: e4f2 d73c 438f 2a3d fe2e a53c 0ba7 49bd
-0.0037316736 0.008926446 -0.05793858 -0.0050785244 -0.027509846 -0.06274032 -0.07035713 -0.04253487
-0.06660318 -0.051121876 0.041663643 -0.006172778 -0.06102541 0.058733832 -0.047451653 -0.06395936
0.042187583 -0.005966415 -0.05880954 0.08138223 -0.0015865183 -0.06169142 -0.08795769 0.010713489
-0.07015798 -0.019945426 0.059535194 -0.01670538 0.076702364 0.017832365 0.022301512 0.018495582
-0.10707805 0.020302765 -0.017051635 0.013663308 0.0008178954 -0.030817881 -0.0033526167 0.00012979408
-0.061049033 -0.12297916 0.014086571 -0.038371008 -0.050413337 -0.0014030341 -0.060768835 0.057864804
0.008450019 0.07495131 -0.024544783 0.0006428242 -0.07919625 0.01925387 -0.061984766 -0.04816891
0.01839631 -0.080028735 -0.011509826 0.0550494 0.005116285 -0.004181861 -0.049523126 -0.011218483
0.026678711 -0.03663826 -0.059653517 -0.082571365 -0.052836988 -0.057312775 -0.041581996 -0.023224125
-0.026848665 0.019972757 0.022940217 -0.036363423 0.051199913 -0.07456571 -0.05651055 -0.070361726
-0.016375653 -0.005957605 0.010384922 -0.027894989 -0.08165623 -0.036309425 0.02114343 -0.06375821
0.033082273 -0.12281354 -0.106275596 -0.010257305 -0.014020398 -0.029433817 0.054896396 -0.008714029
-0.025704028 -0.12970975 -0.036875214 -0.022059605 0.0140128145 -0.042518225 0.035967387 -0.09059333
-0.09171684 -0.003027854 -0.041941047 -0.059040852 -0.03170164 0.0066814506 -0.07439643 -0.044742167
-0.09939131 -0.001463873 -0.046930518 -0.068958774 -0.04834612 0.022900967 -0.062721066 0.018411944
-0.034666095 -0.040646635 -0.04380775 0.06064918 -0.0057101026 0.028290499 0.018239949 -0.0045474083
-0.029394992 -0.032857094 0.018475505 -0.03009311 0.0064932317 -0.028689835 -0.052282143 0.039449863
-0.06961676 -0.003233972 0.0030992313 -0.038588338 -0.047465064 -0.026091311 -0.0001456927 -0.028875593
-0.016474478 0.009227276 0.011243445 -0.0040730694 0.0028624993 -0.02268137 -0.0033904328 -0.04788162
-0.006247664 -0.05640999 -0.014835051 0.025103824 0.055395365 0.049057033 -0.047470454 -0.0043277615
-3.6082525e-05 -0.013986801 0.04637949 0.044844322 -0.015024387 0.00043287766 -0.0026184437 0.0063058604
0.009769512 -0.057317663 0.05033478 0.062466707 -0.048456468 0.02675781 0.05744909 0.03968506
-0.0024524906 -0.06730228 0.006819709 0.016029047 -0.00090192084 -0.059846107 -0.064678684 -0.04605776
-0.028154286 0.060104765 -0.04169587 0.0026701915 -0.08193783 0.07477539 0.0056840703 -0.0033932626
0.00055529375 0.049818914 0.0035534427 0.009434663 -0.049159613 -0.016629133 0.062559016 0.012240932
0.0010527251 0.042651694 -0.07220385 -0.011319581 0.033680577 -0.0050863647 -0.02810017 -0.008425103
-0.00076561264 0.009575815 -0.076794565 0.027345357 0.0064884135 -0.018087586 -0.05468773 -0.06013623
-0.01949102 0.022878492 0.004990576 0.0005126011 -0.0022179296 -0.067050606 -0.04322789 -0.020335857
-0.04499535 -0.0063193827 0.00028156166 -0.016102448 -0.021942263 -0.040048946 -0.08189621 -0.04940262
-0.062735125 0.07095765 -0.019044414 0.0051656975 0.027947832 0.032435 -0.07624763 -0.053891413
-0.052021943 -0.0026361377 0.023438085 -0.10945064 -0.07819788 -0.08191896 0.019669045 -0.07964606
-0.031989787 -0.002254125 0.047607776 0.006840104 0.026360936 0.04164053 0.02016401 -0.04923157

gat2.lin_l.bias f4 [16]
00000000: fb70 bcbd de9a b33d d9fa 7ebd b25e e53d
00000010: acc2 a0bd 70ee c33d 90ac abbd 0e16 e33d
00000020: 3698 90bd 3c8c c63d 440d efbd 0102 dd3d
00000030: b429 b5bd 96e0 cb3d 9f8b a6bd 3e4c e43d
-0.09201237 0.08769773 -0.062250946 0.11199702 -0.07849631 0.09566963 -0.08382523 0.11088191
-0.07060282 0.09694716 -0.11672452 0.10791398 -0.08845845 0.09954946 -0.08132099 0.111473545
