models/saved/explainer_pg.pt (torch, 4381 bytes, 3 tensors)

mlp.0.weight f4 [64, 6]
00000000: 4c85 463d 5ec4 eabe a74e 7abe 5613 aabe
00000010: 7138 0bbf 8311 333e e6dd 493e 303c 60be
00000020: c659 82be cddd d9bc b5b9 09bf 526b 103f
00000030: efad 0a3f 957a 43bf d06d 0f3e 9877 3fbf
00000040: dc6b c43e b595 0cbf 7711 74bd cddf 80be
00000050: 2c09 36bf 3555 223f 8209 883e 372e 79be
00000060: 71b6 0dbf b6a0 2f3e 14ab 2dbf a916 3d3e
00000070: 9a55 913e 8897 42be 3ec6 03bf c2d4 03be
00000080: 5762 0abe 13bc 2cbd b74e 21bf 44b0 143f
00000090: 67b1 a5be 3797 45be 8a20 42bf fbd7 0e3f
000000a0: cf4a 11be 4bd8 56bc 932b f43e 57cf 83be
000000b0: 8798 09bd 0d2f f63e f4a3 4abf 9d5a 263f
000000c0: 40af babe a51d df3d 6721 8abe 561e 813e
000000d0: 4ccb aa3e a1f8 f53d d440 21be e583 dfbe
000000e0: 08a4 7abc fe07 bcbb 83c1 09bf 0296 0b3f
000000f0: 5e84 4cbd 2140 bebe a9d4 00bf d272 01be
00000100: 4704 9bbe 4622 f1bc 9edb d43d 131c e7be
00000110: 6652 ddbe 9d9f c53e 3583 f5be 962e 703f
00000120: 5480 9dbe 169c 9fbe 8cd6 cd3e abeb 7ebe
00000130: 5149 d7bd 288f 0c3e bb49 a93e 8dea 23bf
00000140: fcf1 163f 57ef 33bf 9bbf ba3e 9a6b 05bf
00000150: 6fb1 a63e e5d9 8dbe 5786 39bf 06ea 803e
00000160: 3226 3bbd 5f52 ecbd d74a 80bd 7261 183f
00000170: 1ccb 1abf c881 0b3f 0be3 31be 1ef4 98be
00000180: 86ec 2f3d f6ae 5f3e 8cdf d1be 5545 633c
00000190: 4eac 93be fc8f c03e cf5b 82be c888 29be
000001a0: efc5 27bf 8a47 ba3e 7f42 9bbe 67a2 403f
000001b0: 2ea8 aa3e e332 3d3e 73f6 143e 5a79 72bf
000001c0: 5b17 183f cabe 99be 27ee 893e 7c52 893e
000001d0: 2a14 243f a139 43bf 1b3d 523f 1f56 30bf
000001e0: 4ec7 e5be 5338 d03e 46e0 55bc 9643 013f
000001f0: b698 cebe 2cef 85bd aa57 8f3e 220b f9bd
00000200: 5506 1f3f ecad 14bf df93 0c3f 51af 46bf
00000210: 3cb0 60be 0e00 6ebe 3a4a 21bf adbd c1bd
00000220: 6217 42bf 2fb8 fc3e d1f7 83be c42f 063f
00000230: 3386 113d b1a1 ae3d da8a ae3d 70a1 21bf
00000240: 587a a1be e21b c7be 66f7 1d3f 4739 3f3c
00000250: 2c00 f83e e129 3abf 8c64 9a3d f5b3 dd3c
00000260: ebf3 323f 6b88 6fbf 678b 693e 116c 16be
00000270: a862 0d3f ac1f c0be e35b 193f e3df 43bf
00000280: 0e3f 1f3e a139 80be 6143 cabd 700b b43d
00000290: 3524 fc3e 3f34 13bf 8d77 2e3f 7024 2bbf
000002a0: c35f 81bd 3108 8e3e 8cfa 773f 0543 f6be
000002b0: c370 7f3f a3f1 8cbf fe8e 70be ef21 023f
000002c0: 0abd c4be 0b04 1c3e 3532 f3be aeae 0abe
000002d0: 2f1e a8bd 1dd8 d43d 6db4 2c3e 6edf 5b3e
000002e0: bcf9 9bbe e028 15be 067b 853e a7cc a8be
000002f0: 5885 e13d 94c1 343e 537c 053f efe5 2abf
00000300: 73df 03bd 646e 0e3f b98a 10bd 7c92 06bc
00000310: 18ab ec3e 853f 18be 614d 0e3f 20ba 6ebf
00000320: 4303 1f3f f849 1ebf afeb 2b3e 9378 0abf
00000330: 3c02 14bf a57d 323f e955 a4be 2f50 063e
00000340: cbe3 a5bd 1e2b 01be 3225 0fbe 0766 0fbe
00000350: 9bea 87be 5db0 143f 6a0b c3be 4cd9 cc3e
00000360: 696b d13d 34e3 e23e ff53 5abf 0471 693f
00000370: 90f6 bbbe 2986 da3e 8608 ad3e 3595 d5be
00000380: 35b0 87be 1db4 62bc be16 bebe 1ad6 b73d
00000390: 2b29 243f bc26 80bf 2012 2d3e 0ac3 c2bd
000003a0: e536 223f 891b e1be f7b9 383c 2543 4bbe
000003b0: 5a6c 2f3e 7494 50bf c37f d13e c8a4 1cbf
000003c0: 5421 f2be 34fc e13e d680 efbe 3960 393f
000003d0: 6505 593b b690 ed3c 569d 60be 3cf9 33be
000003e0: 57b8 e53e b6d5 42bf 27fa 4f3f 3cf3 7dbe
000003f0: ec54 c73e 48ba 30bd 0080 b6be acc9 723b
0.048466966 -0.4585294 -0.24444066 -0.33217877 -0.54383 0.17487149 0.19713554 -0.2189796
-0.25459117 -0.02659502 -0.5379899 0.5641376 0.5417165 -0.7635892 0.14006734 -0.7479186
0.3836354 -0.54915935 -0.05958697 -0.25170746 -0.71107745 0.63411266 0.26569754 -0.24334036
-0.5535651 0.1715115 -0.6783917 0.18465675 0.2838562 -0.19003117 -0.5147437 -0.1287413
-0.13514076 -0.04217155 -0.63010734 0.5808146 -0.3236191 -0.19295965 -0.758309 0.5579831
-0.14188693 -0.013113092 0.47689494 -0.25744125 -0.033592727 0.48082772 -0.7915642 0.64982015
-0.3646183 0.10894326 -0.2697861 0.25218457 0.33358228 0.12010313 -0.15747386 -0.43655315
-0.015297897 -0.0057382574 -0.538109 0.5452577 -0.049930923 -0.371583 -0.50324494 -0.12641457
-0.302767 -0.029435288 0.10393451 -0.45138606 -0.43226928 0.38598338 -0.47951666 0.93821084
-0.3076197 -0.31173772 0.4020275 -0.24894588 -0.10512031 0.13726485 0.33064064 -0.6402977
0.5896299 -0.7028708 0.36474308 -0.5211731 0.32557246 -0.27705303 -0.7247061 0.25178546
-0.045690723 -0.115391485 -0.062642746 0.5952369 -0.6046617 0.54494905 -0.17371766 -0.29873747
0.042950176 0.21844086 -0.40990865 0.0138715105 -0.28842396 0.3760985 -0.2546067 -0.16556084
-0.655364 0.36382705 -0.3032417 0.75247806 0.33331436 0.18476443 0.14547138 -0.9471642
0.5941064 -0.30028373 0.26939508 0.26820743 0.6409327 -0.7625981 0.8212449 -0.6888141
-0.4487862 0.40667972 -0.013053959 0.5049375 -0.40350884 -0.06539759 0.2799657 -0.121603265
0.62119037 -0.58077884 0.54913133 -0.7761126 -0.21942228 -0.23242208 -0.63003886 -0.09460006
-0.7581693 0.4935927 -0.25775006 0.52416635 0.035528373 0.08526934 0.085225776 -0.6313696
-0.31538653 -0.3888846 0.61705625 0.011671371 0.4843763 -0.7272015 0.07538709 0.02706335
0.6990344 -0.9356753 0.22807084 -0.14689662 0.5522866 -0.37524164 0.59905833 -0.765135
0.15551397 -0.25043967 -0.09876133 0.08791244 0.49246374 -0.57501596 0.6815117 -0.66852474
-0.06317093 0.27740625 0.9686668 -0.48098007 0.99781436 -1.1011242 -0.23492047 0.5083303
-0.38425475 0.15235917 -0.47499242 -0.13543198 -0.08208882 0.10392783 0.16865702 0.2147195
-0.3046397 -0.14566374 0.26070422 -0.32968637 0.110117614 0.17651969 0.5214283 -0.667571
-0.03219552 0.5563719 -0.035288546 -0.0082136355 0.46224284 -0.14867981 0.5558682 -0.93252754
0.6211435 -0.6183162 0.16789125 -0.5409023 -0.5781591 0.6972297 -0.32096794 0.13116525
-0.08100089 -0.12614104 -0.13979033 -0.14003764 -0.26546177 0.5808161 -0.38094646 0.40009534
0.10225565 0.44313967 -0.8528442 0.91188073 -0.3671155 0.4268048 0.33795565 -0.41715398
-0.26501623 -0.013836888 -0.37126726 0.089763835 0.6412532 -1.0011821 0.16901445 -0.09509857
0.6336501 -0.4396632 0.011274806 -0.19849832 0.17131177 -0.8147652 0.40917787 -0.61188936
-0.47291052 0.44137728 -0.46777982 0.7241245 0.0033114788 0.028999668 -0.21935019 -0.17575544
0.44867203 -0.76107347 0.8124108 -0.24799818 0.38931978 -0.0431464 -0.3564453 0.0037046475

mlp.0.bias f4 [64]
00000000: 0407 0b3f fddb ab3d ae87 493f 5589 1a3e
00000010: 6dde 483f be7c 013f b77e 653f 60d9 3c3f
00000020: ef36 a63e a1ba 0c3f cd27 1c3d 9a42 f63e
00000030: a2db 2c3e 7c67 4a3f ca23 513f 376e 683e
00000040: 316b 843e 047a 0b3e 58a2 8d3f dd66 893f
00000050: 3966 e93e c1be 8e3f 8901 403e a3bd 123f
00000060: 7951 593f efe8 593f bd33 223f 72bf b53e
00000070: f2e4 2e3f 2ffd 723d 767c 7abe 6ad8 3f3f
00000080: 09cc eb3e 6870 7c3f f360 0a3f 0fa9 59be
00000090: cf22 193f c6db 193e 73b3 763f 1fde 2c3f
000000a0: 0626 ee3b a3cc 8b3f a33b e23c a87f 273d
000000b0: aa7b b93e cd02 153e 9211 e53e 9056 8f3d
000000c0: 4d61 2d3f a5ca 0f3f 9075 943e 7ca3 253f
000000d0: 85ea 413e 780c f7be fc47 9c3e f2e7 803e
000000e0: fa86 3e3f 4da2 1e3f 2e1f 783e 1c42 1c3f
000000f0: ca23 833e ab52 0b3f 41a4 5c3f 6d09 463f
0.5430758 0.08391569 0.78722656 0.1509145 0.78464395 0.50580966 0.89646477 0.7376919
0.32463786 0.54972273 0.038123894 0.48097688 0.16880658 0.79064155 0.81695235 0.22698294
0.2586303 0.13620764 1.1065168 1.0734516 0.45585802 1.1151963 0.18750586 0.5732061
0.8488994 0.85121053 0.63360196 0.35497624 0.6831809 0.059323486 -0.2446154 0.74939597
0.46054104 0.9860902 0.5405418 -0.21255897 0.5981874 0.15025243 0.9636757 0.6752643
0.0072677163 1.0921825 0.027616328 0.040893227 0.3622716 0.1455185 0.44739968 0.06998932
0.67726594 0.56168586 0.28995943 0.6470258 0.18937118 -0.482517 0.3052367 0.2517696
0.7442471 0.619664 0.24230644 0.61038375 0.25613242 0.54423016 0.8618813 0.7735813

mlp.2.weight f4 [1, 64]
00000000: d951 81be 3d76 f4be b316 a5be 0b77 d2be
00000010: fdbf dfbe 8f08 91be e8f9 efbe b313 0fbf
00000020: cb80 1dbe dfb8 1cbf fc02 63be 4486 2dbf
00000030: 7fb5 26be 5b9a 05bf b3ce 9fbe e211 dabe
00000040: 5e93 e7bd 74f2 c6be bb44 4ebf de35 47bf
00000050: be61 b8be 9b1a c0be f036 babe 1a7d 9cbe
00000060: 3e64 11bf 89c6 2fbf 4bf2 afbe acf8 59bf
00000070: 1a5b 5fbf 3dd4 c3be f737 593b 3de1 f3be
00000080: 6601 b6be 53d0 c2be 753c afbe 64c6 19be
00000090: 5ce0 9cbe 860f 36be 81c7 1cbf a9fa 04bf
000000a0: da7c 87be ff8d 49bf bd45 a5be b4d0 a1be
000000b0: 2290 87be 8ec6 debe d7ba abbe 6e9f bdbe
000000c0: 53bd 90be e341 20bf aacb f9be 8c9e 04bf
000000d0: ea61 fcbe d18e 2b3c c9e5 fbbe fa49 bdbe
000000e0: 9ade 78be 21e1 94be 2fa2 03be c7e2 03bf
000000f0: 1153 b4be 4938 b9be ee44 9ebe 3ad0 15bf
-0.25257757 -0.4774646 -0.3224388 -0.41106448 -0.43701163 -0.28326842 -0.4687035 -0.55889434
-0.15381162 -0.6121959 -0.22169107 -0.67783 -0.16280173 -0.5218865 -0.31212386 -0.42591769
-0.11307405 -0.38856852 -0.80573624 -0.7781657 -0.3601207 -0.37520298 -0.3637004 -0.30564195
-0.5679358 -0.68662316 -0.34364542 -0.8514507 -0.87248385 -0.38247862 0.003314493 -0.4763278
-0.35547942 -0.38049564 -0.34225813 -0.15017086 -0.30639923 -0.17779359 -0.6124192 -0.5194498
-0.26462442 -0.78732294 -0.3227977 -0.3160454 -0.26477152 -0.4351086 -0.33540985 -0.37035698
-0.28269443 -0.62600535 -0.48788196 -0.51804423 -0.49293453 0.010471062 -0.4919875 -0.36970502
-0.24303666 -0.2907801 -0.12854837 -0.5151791 -0.35219625 -0.36175755 -0.30911964 -0.58520854
